OpenAI Pendulum/pendulum_latest.pt (torch, 164751 bytes, 40 tensors)

weight f4 [64, 3]
000000 05 ee a9 3d 12 3d 94 bf 41 6b d3 be 38 09 da 3e
       0.08297352 -1.1581137 -0.41292766 0.42585158
000010 dd d8 53 3f 5b 49 82 be 75 a6 aa be 00 5a 0d bf
       0.8275278 -0.2544659 -0.33330122 -0.55215454
000020 f5 52 1c 3f ae fc b2 3e b1 bb 26 3f 0d e8 4c be
       0.6106408 0.34958404 0.65130144 -0.20010395
000030 da e0 a5 be a1 bc b0 be cb 03 29 bf 31 05 4c 3e
       -0.3239811 -0.34518912 -0.6602141 0.19923855
000040 58 b7 26 bf b0 db 25 be 30 a9 8b 3e cc ee 99 3f
       -0.6512351 -0.16197085 0.27277517 1.2026
000050 db 9a db 3e c4 75 1e 3f f2 e8 81 bf e3 93 ca be
       0.42891583 0.61898446 -1.0149214 -0.39565954
000060 d2 e2 ad bf 4d 26 11 3a eb 39 d2 3e 69 9f 67 be
       -1.3584845 0.00055370183 0.41059813 -0.22619404
000070 2a 34 1f bf c2 f7 c1 3c d3 1c 1a bf f2 34 a3 bf
       -0.6218897 0.02367771 -0.6020023 -1.2750533
000080 73 34 f3 be c7 5c d4 be af 77 ca 3d 8b 32 37 be
       -0.47500953 -0.41477033 0.09886109 -0.17890374
000090 34 7e 82 be 4b 22 8a 3f e4 0a c2 3e 06 18 66 bf
       -0.2548691 1.0791715 0.37898934 -0.89880407
0000a0 e4 06 52 be b1 6f 06 3e f2 45 aa 3e fa 1f b9 3e
       -0.20510441 0.13128544 0.3325649 0.3615721
0000b0 27 a6 e8 be 94 60 14 3f c9 b6 37 be a8 cb 33 3c
       -0.45439264 0.57959867 -0.17940821 0.010973848
0000c0 d4 76 e8 3e 28 fc 2f bf c7 16 94 3d 97 89 ae bf
       0.4540316 -0.68744135 0.07230907 -1.3635739
0000d0 c9 00 c8 3e e0 4b 21 bf 07 e2 1b 3f 07 ed 93 3e
       0.390631 -0.630064 0.60891765 0.28891775
0000e0 fe 6e 91 3e 34 c0 24 3f d3 0f 79 be 8c 37 e9 3e
       0.28404993 0.6435578 -0.24322443 0.4555019
0000f0 b8 8c 02 bf cd 08 85 bf 6c b1 2a 3e c9 74 49 3f
       -0.5099597 -1.0393311 0.16669244 0.78693825
000100 98 7b 25 3f 90 8f 4d 3d fb bc 73 bf 48 d2 af be
       0.64641714 0.05018574 -0.95210236 -0.3434012
000110 1b 30 8d bf f4 74 73 3f 75 50 54 bc a0 39 1e be
       -1.1030306 0.9510033 -0.012958636 -0.1545167
000120 f9 6f 07 bf 84 dd 75 bf f0 b2 00 bf cf 4f 3d bf
       -0.5290523 -0.9604113 -0.50273037 -0.73949903
000130 ac 66 60 bf c1 65 63 3e 96 80 88 3e c7 53 0b 3f
       -0.87656665 0.22206785 0.26660603 0.5442471
000140 1a c3 08 3f e7 c7 47 bf 45 a6 0b be 4d 2c 53 be
       0.534227 -0.780394 -0.13637646 -0.20622368
000150 25 23 9d be f2 81 b6 bf ab 78 45 be 21 f1 35 3f
       -0.30690876 -1.4258406 -0.19284312 0.7107106
000160 0f 0c b1 3f 40 d9 b1 3e dc 67 7e bf e0 67 51 3f
       1.3831805 0.3473606 -0.99377227 0.81799126
000170 d5 48 72 3e ac af 59 3f 58 06 9a bf f5 09 ba bd
       0.23660596 0.8503368 -1.2033186 -0.090839304
000180 b9 bf 3d bf 2c 4c 22 3e 97 0d 21 3f 8d d9 12 bd
       -0.7412067 0.1584937 0.6291136 -0.035852004
000190 b7 64 dd 3e db 5c 83 be 2b 48 b1 bf 29 bb 3f 3e
       0.43240902 -0.2565678 -1.3850149 0.1872374
0001a0 47 08 43 bf c5 a7 98 be a3 57 78 bf 55 b7 e4 be
       -0.76184505 -0.29815498 -0.97008723 -0.4467112
0001b0 98 16 f5 bd d9 76 55 bf 10 c5 c9 be ce 53 e4 be
       -0.119672 -0.8338447 -0.3940816 -0.44595188
0001c0 94 89 ee 3e e8 77 08 3f 4c 77 7a 3f 95 51 55 bf
       0.4658934 0.5330796 0.9783828 -0.8332761
0001d0 b6 d8 51 be 2c 82 7e 3f 39 ec 42 3f f6 4a ca 3e
       -0.20492825 0.99417377 0.761417 0.39510316
0001e0 6b 47 39 3e 45 d3 3f bf 1a 73 15 3f 65 13 e2 be
       0.1809365 -0.74931747 0.58378756 -0.44155422
0001f0 be b6 23 3f ce 21 ac bd f6 b3 04 3f 3c 64 15 bf
       0.6395072 -0.08404885 0.518371 -0.5835607
000200 06 de e6 bd 62 f6 0f 3f ae 74 30 3e 65 07 12 3e
       -0.11272816 0.56235325 0.1723201 0.14260633
000210 75 f0 8a 3e 39 70 5f 3f fd 0a 00 3f d3 d9 91 bf
       0.2713658 0.87280613 0.50016767 -1.13946
000220 43 5c 5f be 07 de 14 3e 5e 3e 54 bf 10 e0 a0 be
       -0.21812539 0.14537822 -0.82907665 -0.31420946
000230 4e 8b 06 3f 52 a9 3d 3f 55 3b 9e be b9 f7 8c be
       0.5255631 0.7408649 -0.30904642 -0.27532747
000240 64 59 72 3c 04 b4 76 bf 96 7b cb bd ea a9 49 be
       0.01479182 -0.9636843 -0.099356815 -0.19693723
000250 19 ac 80 bf b5 8a 1d be 83 73 eb be cb 19 2d bf
       -1.005252 -0.15384944 -0.45986566 -0.6761748
000260 48 21 7e 3e 8e f8 d6 be 3d 58 a2 bd 92 2b 05 3f
       0.24817383 -0.41986507 -0.07926986 0.5201961
000270 22 87 a1 3d 54 01 4d be 9b 66 20 3f 33 8d fd 3e
       0.07887103 -0.20020038 0.62656564 0.4952179
000280 4f 24 dc be 6f 4f 0b 3e fe 55 6c bf ca 2b e7 be
       -0.4299645 0.1360452 -0.92318714 -0.45150596
000290 bf f9 a2 be 67 5e 95 bd a9 b4 f2 bd c5 ed 63 bf
       -0.31831166 -0.072933964 -0.118508644 -0.8903468
0002a0 de fd 01 3f 4b ac 43 bf 80 1e 13 be e7 a5 fc 3d
       0.50777996 -0.76434773 -0.14367104 0.12336331
0002b0 fe c9 c7 be 5a 58 df 3b b4 e2 fb 3e 8d ef 77 3e
       -0.39021295 0.0068159522 0.49196398 0.24212475
0002c0 5a 54 ba be 58 5e 03 3f fc 45 b6 bf 3b 12 ba be
       -0.3639248 0.5131583 -1.4240108 -0.36342034
0002d0 c9 7c 8b be 21 de 0d 3f dc 9a 12 be c1 ea 07 3f
       -0.2724364 0.55417067 -0.14316887 0.5309258
0002e0 21 07 9c be e9 19 af be 81 36 86 bf ef 47 1c 3f
       -0.3047419 -0.34199455 -1.0485383 0.6104726
0002f0 5b 99 8a 3e 55 3f 80 bf 0a 84 07 3f ec 3d 3f 3e
       0.27070126 -1.0019327 0.5293585 0.18675965

bias f4 [64]
000000 70 bb d7 3d 7f 9e 95 3e 8a 2d 3e 3f 86 15 43 bd
       0.10533798 0.29222485 0.7428824 -0.04762795
000010 3f ba 18 be 0c 04 1e be 67 f7 10 bf ac 16 a9 3c
       -0.14914797 -0.15431231 -0.56627506 0.020640694
000020 66 12 6d 3e 37 c8 63 3f ff 26 07 3e d2 fb a6 be
       0.2315155 0.8897738 0.1319847 -0.32614
000030 92 1c 34 be 78 e6 26 3f 03 a8 1d bf 8c 09 41 3f
       -0.17589024 0.6519542 -0.6158449 0.7540519
000040 d0 48 a4 be c1 f3 38 3f 23 91 1a 3f 1c 49 65 3e
       -0.32086802 0.7224694 0.6037771 0.2239117
000050 a3 89 cc 3e 76 b1 c6 3e 4b 86 e3 be 8b ce d1 3d
       0.39948758 0.38807267 -0.44438395 0.10244473
000060 c8 ba bb be 46 dd ad 3e 7f 88 3e bf bd 00 24 3f
       -0.3666594 0.3395788 -0.74427027 0.64063627
000070 7c 05 d6 3e af 98 81 bf 24 63 3e 3f 19 d0 d5 3e
       0.4180106 -1.012472 0.74370027 0.41760328
000080 bd b5 0f bf 0e 4f d2 3e f9 98 33 3f 7f 45 a7 3e
       -0.56136686 0.4107594 0.7015529 0.3267021
000090 d5 72 dd 3e 9a 53 04 bf dd c2 fa 3d af 09 aa bd
       0.43251672 -0.51690066 0.122441985 -0.08302628
0000a0 aa 67 52 3b 6d 40 db be 6b 05 0b bf cf d7 47 3f
       0.0032105246 -0.4282259 -0.5430514 0.7806367
0000b0 0c 7d 83 3e 3b 57 2a be 59 ab 38 bf ce 1f 1b bf
       0.2568134 -0.16634838 -0.72136456 -0.60595405
0000c0 70 af 17 bf 3c b0 0d 3f 09 5d 1e 3e 43 9f c3 be
       -0.5925207 0.5534704 0.15465178 -0.38207445
0000d0 7a 17 11 3e 0f 8d 4f bf 62 d9 36 3f 75 54 86 3e
       0.14169112 -0.81074613 0.7142545 0.2623631
0000e0 88 98 16 bf 38 d2 e9 be 44 a6 e2 3d de b0 9e be
       -0.58826494 -0.45668197 0.11066869 -0.30994314
0000f0 a9 a0 55 3f 0a 33 0d bf d9 1f 41 3f 90 ea 69 be
       0.8344827 -0.55156004 0.7543922 -0.22843385

weight f4 [64, 64]
000000 7f 59 7e bd c1 f7 ca 3d 0f 02 2a 3d 75 ee af 3d
       -0.06209707 0.099105366 0.04150587 0.08590404
000010 e6 ab 40 3d 23 3c 0e 3e de 56 a5 bf bf 58 01 3d
       0.047038935 0.13890128 -1.2917135 0.031578775
000020 6d 6a 1e 3e b8 17 7a 3e ac bf 29 3d 9b d6 7c 3e
       0.15470286 0.2442311 0.04144256 0.2469124
000030 9a 0e 0b c0 ea a1 2e 3e ba 59 15 3e df 99 1f 3e
       -2.1727662 0.17053953 0.14585009 0.15586041
000040 71 b7 8b bc 3d ae 3e 3d 57 59 05 bd de e2 7e 3e
       -0.017055245 0.046552885 -0.032555904 0.2489123
000050 f0 38 5b 3e 5f 82 d1 3d 85 17 b5 bd 93 05 8c 3b
       0.21408439 0.102299444 -0.088423766 0.0042731254
000060 95 7a bd bd 6c 0c 69 3e ce 13 8c be ff a4 26 3e
       -0.09251896 0.22758645 -0.2735886 0.16273879
000070 97 f6 22 3e 3b 55 5b bd 30 9e e6 3d 85 b2 83 bd
       0.15914379 -0.05354808 0.112606406 -0.06430534
000080 42 3c 87 be ea 51 80 3e f6 a7 3a 3d a0 b0 69 3d
       -0.2641316 0.25062495 0.045570336 0.05705321
000090 ff 6b 17 bd 94 25 a3 be 42 55 a6 bd 07 60 f0 bb
       -0.036968227 -0.31864607 -0.081217304 -0.007335666
0000a0 57 0b b3 3b c7 a5 a7 3d 70 5a 83 3d ae 03 72 3e
       0.0054639983 0.081859164 0.06413734 0.23634216
0000b0 9f 60 2e 3d 92 b9 d6 3e e8 b1 c8 bd bf 0d 84 bd
       0.042572614 0.41938454 -0.09799558 -0.06447934
0000c0 89 59 8f 3c 06 10 74 3d c9 a9 45 3e 88 a7 90 be
       0.017498748 0.059585594 0.19303049 -0.28252816
0000d0 99 42 88 bb 8b ad 61 be 45 99 36 3e b3 3f 00 3e
       -0.0041583297 -0.22038858 0.17831905 0.125243
0000e0 20 62 56 be 49 16 5e 3d 7f 61 6e 3d 81 08 f2 3d
       -0.20935869 0.05422047 0.05819845 0.11818028
0000f0 3f ed 13 bc 87 55 08 3e 5a 76 1e bc 03 ea 79 3e
       -0.009028732 0.13313876 -0.009671772 0.24405675
000100 40 0e ae 3c 9b 3d f8 bd 2d 05 48 bd f5 41 7a be
       0.02124703 -0.12121125 -0.04883306 -0.24439223
000110 a8 52 94 3d 49 04 54 3d 12 2e 65 bd 49 21 db 3c
       0.07242328 0.0517619 -0.05595214 0.02674927
000120 b6 5e 82 3d 5d 3d 39 be ba 62 9f 3d fc ef fa bc
       0.06365721 -0.18089814 0.077825025 -0.030632012
000130 a9 11 eb 3c d3 b4 b4 bd 85 27 ca 3b 3b 30 ae be
       0.028694944 -0.08823552 0.006169262 -0.34021172
000140 4e 59 8d 3d f1 c7 2b bd a8 7a 2b be 1e 3d d7 3b
       0.06901799 -0.041938726 -0.16746008 0.006568565
000150 21 0c 8b bd 52 41 5f be a2 b4 34 bc 7c 53 81 be
       -0.06789423 -0.21802261 -0.011029394 -0.25259006
000160 b4 ec 61 3d a3 ad dc 3d 13 b8 f7 3d 3d 98 49 3e
       0.05515738 0.10775306 0.12095656 0.1968698
000170 68 77 e0 bd 4b 6e 9a 3d d6 a9 84 bd 6f df e9 be
       -0.10960275 0.07540568 -0.06477706 -0.4567828
000180 b9 3f e1 3d e5 b4 70 bf 84 24 fc bd dc d3 e2 3c
       0.10998482 -0.94026023 -0.12311652 0.027688913
000190 34 aa 4f 3d 01 e0 27 bd f5 a3 70 3d 17 6a ca bd
       0.050699428 -0.04098511 0.05875011 -0.09883516
0001a0 b3 05 b9 3c eb f9 23 3d 38 ae 9b 3d 32 a6 50 be
       0.022585725 0.040033262 0.07601589 -0.20375898
0001b0 e0 75 b4 bb f6 a8 1a be 38 e9 34 3e e7 58 07 bd
       -0.005507216 -0.15103516 0.17667091 -0.03304377
0001c0 47 c3 5b bd 44 39 60 bf bc 0a 90 3c 0a e7 11 bd
       -0.053653028 -0.8758738 0.017583244 -0.035620727
0001d0 0e 35 9b 3d bb a3 56 bf c3 69 1e 3d ad c2 03 ba
       0.07578479 -0.8384358 0.03867508 -0.00050262624
0001e0 0c fc b1 bd 69 16 e6 bd 7b ed 47 bc 0b bf 5a bd
       -0.08690652 -0.11234743 -0.012202616 -0.05340485
0001f0 0e 74 01 bf 7a 31 df bd 15 69 7a 3c 18 01 4a 3e
       -0.5056771 -0.10898109 0.015283843 0.1972698
000200 7a 8f 0f bd fb 22 1c 3e 28 2c 95 bd 2e 5f 7b 3c
       -0.03504894 0.15247719 -0.07283813 0.015342517
000210 b2 64 29 3e 9a 07 34 be 58 57 63 3d 17 8c 57 be
       0.16542318 -0.17581025 0.05550322 -0.21049534
000220 9d 44 40 bc 96 ea 88 3d 31 fd d7 3d fd 68 c5 3d
       -0.011735109 0.06685369 0.10546339 0.096391656
000230 98 6c c8 bc 69 72 1f 3e 59 a6 58 bd 71 3b 39 bb
       -0.024465844 0.15570988 -0.052893016 -0.002826419
000240 72 f3 d9 3d d6 df 2a 3e 52 c9 3b 3d 53 c4 dc 3d
       0.10642137 0.16686949 0.04584629 0.107796334
000250 3c 0f 86 3c b4 15 be 3d 77 b0 55 bc f9 6b fd bd
       0.016364686 0.09281483 -0.013042561 -0.1237411
000260 dc 8f d4 bd 72 cc b2 3d 05 eb a8 3d ff f4 04 3d
       -0.103790015 0.08730401 0.082479514 0.03246021
000270 1c 50 18 bd 8e e5 c3 3d 8d c7 88 3c 66 4a fe bd
       -0.037185773 0.095652685 0.016696716 -0.12416534
000280 1a ee 07 3e 80 92 81 bd 0d ac 30 3e 6a 62 a9 3d
       0.13274422 -0.06326771 0.17253132 0.08270724
000290 d8 a8 72 3d f8 e4 f6 bd 31 14 3c be 1e c4 81 bd
       0.059243053 -0.12055391 -0.18367077 -0.063362345
0002a0 2e 55 13 3e 5d 74 c9 3d 3c 3c 92 bf 38 1c fd 3d
       0.14387962 0.09836648 -1.1424632 0.12358898
0002b0 bb 92 02 3e da 37 0e 3d 8f f9 6a 3d bb c9 9a bd
       0.12751286 0.034721233 0.057366904 -0.07558008
0002c0 2d 30 f4 ba dc 3c 89 3c ff d5 a8 3c 78 16 51 3c
       -0.001863008 0.016752653 0.020609854 0.012761705
0002d0 91 ab 83 bd b3 de 47 be c7 8a c1 3b 37 cd f1 3d
       -0.06429208 -0.19518547 0.005906436 0.1180672
0002e0 35 5d 8e be bd 78 d2 bd ce f6 96 bd 9e c9 a1 be
       -0.27805486 -0.10276935 -0.07371293 -0.31599134
0002f0 3f 57 1f 3e 0d a8 08 bd cf 94 7a bd 2b d3 a6 3d
       0.15560625 -0.03336339 -0.06117707 0.08145746
000300 76 30 07 3c b6 0a fa bb 0b ef 87 3d 20 a4 1f 3e
       0.0082513 -0.0076306714 0.06637391 0.15589952
000310 aa 32 3f bd be 31 d9 3d 99 1e c1 3d d9 eb 9d bd
       -0.046679176 0.10605191 0.09429664 -0.07711
000320 66 de 40 3e 33 77 de be 6a a7 a8 bc 2c 2c b3 3e
       0.18834838 -0.43450317 -0.020587642 0.34994638
000330 70 97 b1 3d 9d e6 e5 be dc 81 52 3e dd ae 99 bd
       0.086714625 -0.44902506 0.2055735 -0.07504056
000340 bc bd 35 bf e0 e5 22 3e f2 5c 6d 3d e4 fa 29 3e
       -0.70992637 0.15908003 0.057949968 0.16599613
000350 3d 71 9c 3e 5c c6 8a 3d 12 0b 9e 3d 46 b2 29 be
       0.30555144 0.06776115 0.07716955 -0.16571912
000360 e9 c4 b0 3d ad 45 b7 be 8c 24 ae 3d bb ee b2 bd
       0.08631308 -0.35795346 0.085030645 -0.087369405
000370 23 4d 0a be 5e 3b 26 3e a1 bb 4b bb 20 20 d0 be
       -0.13505988 0.16233584 -0.0031087177 -0.4064951
000380 06 cb cb 3d d5 3e 09 3e f0 39 a8 3d 6c b9 9c 3a
       0.09950833 0.13402875 0.08214176 0.0011957115
000390 d9 ef 1a be 3f 25 06 3e 3c 51 24 be c1 64 e7 3e
       -0.15130557 0.13100146 -0.16046613 0.45194057
0003a0 f5 df 30 3e 60 4a d3 bd bb 90 21 3e fc 3d ea 3d
       0.17272933 -0.1031692 0.15777867 0.11437604
0003b0 dd 13 6b be d5 73 a7 3d 67 76 5c 3e 30 2b 2a be
       -0.22956796 0.0817639 0.21529542 -0.16618037
0003c0 9f 2b ee 3e 57 47 9e 3c 9d 20 fc 3b 5a ae 9c 3c
       0.46517655 0.019321127 0.0076943175 0.019126106
0003d0 9b 10 10 3d 10 ae 64 be e5 0f 35 3d 1c 4e 6a bb
       0.035172086 -0.22332025 0.04420461 -0.0035752123
0003e0 1d 9b 4f be 78 84 b5 bd e9 b4 a2 3d 12 0e 0e 3e
       -0.20274015 -0.08863157 0.07944662 0.13872555
0003f0 4a ce 12 3e 39 fe 2b 3e e9 fd 40 bf 6d e4 20 bf
       0.14336506 0.16796197 -0.75387436 -0.6284855

bias f4 [64]
000000 f6 d3 5d 3e d2 b2 9d be 61 72 42 3e 0f 11 52 be
       0.21662888 -0.30800492 0.18988945 -0.2051432
000010 93 9a d5 3c d2 56 d2 3d 0c 38 1f 3e 07 54 da 3d
       0.026074683 0.10270466 0.15548724 0.10660558
000020 72 c1 d7 3d 65 6b c1 3d 1b 83 bb 3c 5e b1 d7 bd
       0.10534944 0.09444312 0.022889664 -0.10531877
000030 42 31 18 bd a9 e1 78 bd b6 e1 ea ba a3 93 a5 3d
       -0.03715635 -0.06076208 -0.001792005 0.080848
000040 f0 92 20 be ab a8 d0 bd 3f 73 49 bb 15 c2 14 3e
       -0.15681052 -0.10188421 -0.0030738858 0.14527161
000050 fa 1e 12 3e 44 aa d9 3d 87 2a aa bd 6e 3c 45 3d
       0.14269629 0.10628179 -0.08308893 0.048153333
000060 78 39 8f be 04 99 29 bd 34 35 47 be 04 a8 b0 3c
       -0.27973533 -0.041405693 -0.19453889 0.021564491
000070 80 97 fa ba a5 8b 08 3b d2 32 d5 3d 60 ea 47 bb
       -0.0019118637 0.0020835188 0.10410084 -0.0030504689
000080 29 3e 22 3e 4c 23 07 be 6b 6d f3 3d 5b 79 e6 bd
       0.15844025 -0.13197058 0.11886104 -0.112536155
000090 35 06 92 3d e4 88 8b 3d b4 30 6e bd 77 8a 20 be
       0.0713009 0.06813219 -0.058151916 -0.1567782
0000a0 c8 2d 74 3e 4b 58 d1 3b cf 88 59 3e 7f c6 74 3d
       0.23845589 0.006388699 0.21243595 0.059759613
0000b0 ad eb 2f 3e be ea 25 3e 87 fd d6 3b 39 c0 9e 3d
       0.17179747 0.16202828 0.0065609845 0.07751507
0000c0 24 43 93 3d c3 1f 97 bd 09 2b 5d be a5 e7 a6 3d
       0.071905404 -0.07379105 -0.21598448 0.081496514
0000d0 43 f6 9e 3d 44 a4 9f bd 8f 1e be 3d db 15 4f 3d
       0.077618144 -0.07795003 0.09283172 0.050557952
0000e0 b3 30 fa 3d 8c 70 0d 3e 87 7c e3 3d 9a 78 ca bc
       0.1221632 0.13812464 0.11107736 -0.02471571
0000f0 bc 29 d4 bb 76 80 3a bd 99 c9 eb 3d 38 55 8b 3e
       -0.0064747017 -0.045532666 0.11513061 0.27213454

weight f4 [1, 64]
000000 15 2e 35 be 00 58 c0 3f 46 27 3c 3e 3d 31 fc be
       -0.1769336 1.5026855 0.18374357 -0.49256316
000010 9c d3 aa 3e 1f 39 0c 3e 41 8d fe be 02 b0 2e 3f
       0.3336457 0.13693665 -0.49717143 0.68237317
000020 af 7b a6 3e 94 da 43 3e 38 94 98 3f ae d3 d4 3d
       0.32516238 0.1912635 1.1920233 0.10391937
000030 d5 0c f8 3e 23 92 29 3f cf eb 8b be 7b 5a d5 be
       0.4844729 0.6623861 -0.27328345 -0.41670594
000040 02 7d 33 be ab cf 14 bf ba 64 c1 3e 6b 27 1b 3e
       -0.17528155 -0.58129376 0.3777216 0.15151756
000050 a0 65 09 3f cb 34 82 3e 77 76 dd bd 2d 90 a5 3e
       0.5367069 0.25430903 -0.10813611 0.3233656
000060 8f 58 dc 3f 70 84 a2 be aa 47 5d 3f 8f 38 6d 3e
       1.7214526 -0.31741667 0.86437476 0.23166107
000070 b0 3b 4d 3c 12 c8 8f 3e 3f be fd bd ea d9 7a 3e
       0.012526438 0.2808233 -0.12389802 0.2449719
000080 04 2a 8d 3e 73 7e 51 be 68 63 6b 3e 3e a0 d9 3e
       0.27571118 -0.20458393 0.22987139 0.42505068
000090 9b 8b b5 bd 4e 6f b9 3e d0 dc 49 3c 98 d9 1b bf
       -0.08864518 0.3621773 0.012320712 -0.60878897
0000a0 ee 54 7f be 66 86 1e be ec 8c 23 bf dd 54 9c be
       -0.24934742 -0.15480956 -0.63886905 -0.30533496
0000b0 be 03 f0 3e e8 f4 9e c0 c5 03 4c be 8b 19 0a 3f
       0.46877855 -4.967396 -0.19923313 0.53945225
0000c0 2a 70 37 40 15 44 10 3f 89 e4 13 bf f5 81 28 bd
       2.866221 0.56353885 -0.5777059 -0.04113956
0000d0 53 92 af 3e 5f 8e e8 3e 9a 7c b9 be 3d 5a b3 be
       0.34291324 0.4542112 -0.36227876 -0.35029784
0000e0 57 20 5d 3e 0b 2e fc be b6 8d a7 3d 88 e1 67 3d
       0.21594368 -0.49253878 0.08181326 0.056611568
0000f0 43 a4 bc 3d 89 29 88 3d 9d 60 99 3d 82 c1 a5 be
       0.09211018 0.06648547 0.07489131 -0.32374197

weight f4 [64, 3]
000000 dc c6 89 3d c8 90 93 bf 4d bb d4 be 7b d2 d8 3e
       0.067273825 -1.1528559 -0.4154915 0.42348084
000010 51 67 54 3f e2 dc 84 be 05 70 ae be 0d ae 0e bf
       0.8297015 -0.2594977 -0.3406984 -0.5573433
000020 89 d3 1b 3f b7 ba ae 3e 18 11 24 3f 68 c1 4c be
       0.6086965 0.34126827 0.64088583 -0.19995654
000030 b2 e4 9b be 89 ee a1 be 69 ec 29 bf 1b cf 2e 3e
       -0.30447918 -0.316273 -0.6637636 0.17071192
000040 13 ab 26 bf a0 cc 26 be e9 59 9f 3e 81 7c 95 3f
       -0.6510479 -0.16288996 0.31123284 1.167862
000050 8c ad d5 3e 9f 16 1a 3f 6d 76 83 bf ab fd c9 be
       0.41733968 0.6019077 -1.0270516 -0.39451346
000060 f1 04 a7 bf 4e 6d ed 3d d1 9d d8 3e f8 ea 5f be
       -1.3048383 0.11593114 0.42307904 -0.21866977
000070 33 d8 1f bf b3 6a cb 3c ff cf 23 bf 3a b4 98 bf
       -0.6243927 0.024831152 -0.6398925 -1.1930001
000080 e0 23 f0 be b5 ac dc be 78 d6 f8 3d 7e 11 36 be
       -0.4690237 -0.43100515 0.12150282 -0.1778011
000090 07 20 7b be 85 5e 89 3f f1 6b c1 3e 6c 50 64 bf
       -0.24523936 1.073197 0.37777665 -0.89185214
0000a0 c6 b8 4f be e8 08 04 3e 4d d5 a6 3e ec 51 af 3e
       -0.20285329 0.12894022 0.3258461 0.3424219
0000b0 4e f2 e9 be 6b 6b 14 3f 90 07 44 be 9e 50 b8 3b
       -0.45692676 0.57976407 -0.1914351 0.0056248447
0000c0 1d 2a e5 3e d6 cf 30 bf 6b b2 97 3d 82 54 a9 bf
       0.44758692 -0.6906713 0.074070774 -1.3228915
0000d0 8a e5 ee 3e f0 28 25 bf 65 d8 1c 3f 6e 88 8d 3e
       0.466595 -0.6451559 0.6126769 0.2764315
0000e0 e1 8d 95 3e 3e f6 25 3f 73 e0 7f be 46 8c e7 3e
       0.29209808 0.6482886 -0.24987964 0.45224208
0000f0 26 2d 01 bf 0d 6f 83 bf e6 83 21 3e 0a 93 49 3f
       -0.50459516 -1.0268265 0.15772972 0.7873999
000100 1c 10 22 3f cb ad 4c 3d b9 db 71 bf ff f1 3f be
       0.6330583 0.04997043 -0.94475895 -0.18744658
000110 87 d4 8b bf 66 01 74 3f c9 04 39 3b 77 fc 1a be
       -1.0924233 0.95314634 0.0028231612 -0.1513537
000120 2e 41 0f bf 06 19 70 bf 60 46 fb be b9 d1 37 bf
       -0.5595883 -0.9378818 -0.4907713 -0.71804386
000130 16 cc 60 bf 86 83 6e 3e 94 6a 8a 3e 48 e2 06 3f
       -0.8781141 0.2329236 0.27034438 0.5268903
000140 ad 8d 09 3f 4e 69 47 bf a4 01 0a be 4e 05 56 be
       0.53731805 -0.7789506 -0.13477188 -0.20900461
000150 c6 83 9a be 54 c2 b5 bf d2 f7 4d be 70 9f 35 3f
       -0.3017866 -1.4199929 -0.20114067 0.7094641
000160 a6 d9 b0 3f 90 da b2 3e 3f 2a 7c bf 93 ad 5b 3f
       1.3816421 0.34932375 -0.9850196 0.8581173
000170 44 98 74 3e 54 a1 57 3f a9 27 9b bf bb f4 b6 bd
       0.2388621 0.8423054 -1.2121478 -0.089333974
000180 b1 d7 38 bf 78 f2 2f 3e ae 0b 21 3f 8e f4 08 bb
       -0.7220412 0.17182338 0.62908447 -0.002089772
000190 bb b2 e6 3e a9 3a 85 be eb a2 ae bf 61 77 8f 3e
       0.45058236 -0.26021317 -1.3643469 0.28020766
0001a0 95 dd 40 bf 78 3c a2 be e2 16 6f bf 88 7a e0 be
       -0.7533811 -0.3168676 -0.9339429 -0.43843484
0001b0 e1 ba 11 be 61 03 4b bf 05 cc bd be b2 ad d7 be
       -0.14231445 -0.7930203 -0.37069717 -0.42124707
0001c0 72 16 e7 3e 6b 3e 0a 3f 74 50 79 3f 9b a7 53 bf
       0.45134312 0.5400149 0.97388387 -0.8267762
0001d0 ce c3 53 be d5 66 81 3f 2d 35 38 3f d0 f8 c8 3e
       -0.20680162 1.0109507 0.7195614 0.3925233
0001e0 73 f1 30 3e 18 c3 3c bf af 87 17 3f cb 8c de be
       0.17279606 -0.7373519 0.5919141 -0.43466792
0001f0 a8 fc 24 3f d0 45 ad bd 19 97 ff 3e 6e 41 20 bf
       0.6444802 -0.08460581 0.49919966 -0.6259984
000200 fe 6e e9 bd 66 03 11 3f 16 03 20 3e 1e 94 16 3e
       -0.11398123 0.5664581 0.15626177 0.1470494
000210 e2 35 81 3e 8b 75 56 3f 8f f8 fe 3e 90 1f 90 bf
       0.25236422 0.83773106 0.4979901 -1.1259632
000220 8b 70 60 be 24 9b 13 3e e1 64 52 bf 53 75 9f be
       -0.21917932 0.1441465 -0.8218518 -0.311442
000230 93 91 04 3f 53 a0 3c 3f cd 91 97 be 93 f8 8b be
       0.5178463 0.73682135 -0.29603425 -0.27338085
000240 e7 c4 1e bc fc 28 72 bf 0a be c7 bd 0e 24 60 be
       -0.0096905 -0.9459379 -0.09753044 -0.21888754
000250 26 23 7d bf 6e eb 20 be 93 13 e4 be 32 a0 30 bf
       -0.9888176 -0.1571481 -0.44546184 -0.6899444
000260 13 16 7f 3e b8 c0 d5 be 73 21 74 bd 64 89 05 3f
       0.24910764 -0.41748595 -0.059602212 0.52162766
000270 cd 46 88 3d 19 64 5d be ef aa 1f 3f 97 f5 f7 3e
       0.06654129 -0.21620215 0.623702 0.48429558
000280 49 d4 e1 be 92 0c 0b 3e 20 04 66 bf ff a0 cf be
       -0.44107273 0.13579014 -0.89850044 -0.40552518
000290 dd ef ae be a9 ce 81 bd 31 6a 7c 3c 73 ce 62 bf
       -0.34167376 -0.063382454 0.015406177 -0.88596267
0002a0 4e 51 01 3f 6b f8 40 bf bd c8 15 be 4b b8 fc 3d
       0.50514686 -0.75379056 -0.14627357 0.123398386
0002b0 db c7 c7 be 8a 6d df 3b c9 67 f7 3e 0c 16 7f 3e
       -0.39019665 0.006818478 0.4832137 0.24910754
0002c0 fb 04 bb be 86 09 09 3f 94 14 b4 bf fe 10 bc be
       -0.36527237 0.53530157 -1.406878 -0.36731714
0002d0 b1 30 91 be aa 29 16 3f 26 cf 0a be 60 f1 01 3f
       -0.2835746 0.58657324 -0.13555583 0.50758934
0002e0 fe 20 9f be cf d5 b4 be 36 f9 80 bf 67 b4 24 3f
       -0.3107986 -0.35319373 -1.0076053 0.6433777
0002f0 c6 f5 8f 3e 4a 04 7e bf f7 b4 03 3f 61 02 3f 3e
       0.28117198 -0.99225295 0.51448005 0.18653251

bias f4 [64]
000000 76 61 f7 3d 7f a2 95 3e 8f da 3e 3f fc ef 3a bd
       0.12079136 0.29225537 0.74552244 -0.045639023
000010 58 26 24 be 08 0b 1f be 59 56 19 bf fc 97 0a 3d
       -0.16030252 -0.15531552 -0.5989738 0.03383635
000020 02 ba 29 3e 2b a3 62 3f 04 cb 10 3e 97 1d a4 be
       0.16574863 0.88530225 0.14139944 -0.32053825
000030 a4 44 3b be a0 9a 23 3f 15 31 1a bf f0 ff 41 3f
       -0.18287903 0.63907814 -0.60231143 0.75781155
000040 8e a0 9c be 75 4e 2b 3f d3 82 19 3f c5 dc 72 3e
       -0.30591244 0.6691659 0.59965247 0.2371703
000050 0d ab cd 3e 31 b1 c4 3e ab 12 eb be 5d 5c c6 3d
       0.40169564 0.38416436 -0.4591268 0.09685586
000060 b9 c4 ce be aa bd a5 3e 17 50 38 bf 02 18 1b 3f
       -0.40384462 0.32371265 -0.7199721 0.6058351
000070 b3 3c d9 3e fa a7 80 bf 8b 41 34 3f 5f 1d dd 3e
       0.42429122 -1.0051262 0.7041251 0.4318647
000080 1e ec 13 bf e8 d4 c6 3e 62 39 2d 3f fc 25 ba 3e
       -0.5778216 0.3883431 0.67665684 0.36357105
000090 41 10 e9 3e ab d3 01 bf 28 3e 03 3e fa 49 a0 bd
       0.45520213 -0.50713605 0.1281668 -0.0782661
0000a0 03 44 76 bb dd a1 d9 be e1 17 00 bf 0c 18 47 3f
       -0.003757716 -0.42506304 -0.50036436 0.7777107
0000b0 5e 95 85 3e bd 09 35 be 71 14 3a bf ac af 1c bf
       0.2609052 -0.17679496 -0.7268744 -0.61205554
0000c0 de 0c 18 bf b4 b3 16 3f f5 63 18 3e a2 7e c6 be
       -0.59394634 0.58867955 0.1488188 -0.38768488
0000d0 6e 12 1e 3e 53 a5 4e bf 44 42 2e 3f 02 a9 72 3e
       0.15436718 -0.80721015 0.68069863 0.23697284
0000e0 1d 40 17 bf 4c a6 e9 be 48 13 e6 3d cd 20 94 be
       -0.59082204 -0.45634687 0.11234146 -0.28931275
0000f0 2a 6f 51 3f 3e ea 07 bf 55 02 35 3f 5d 13 73 be
       0.8181025 -0.530918 0.70706683 -0.23737855

weight f4 [64, 64]
000000 87 ee 78 bd 63 ba c7 3d 98 6d 16 3d 03 a2 aa 3d
       -0.060774352 0.09752347 0.03672561 0.083316825
000010 8f 2c 40 3d c1 07 09 3e 35 98 a2 bf 0b db 06 3d
       0.046917494 0.13381864 -1.27027 0.03292374
000020 24 cf 13 3e 9b e9 77 3e c4 02 21 3d 73 a6 7e 3e
       0.14434487 0.24210207 0.039309278 0.24868183
000030 a3 35 0a c0 1c 6e 29 3e 65 9a 14 3e f2 ef 1f 3e
       -2.1595237 0.1654591 0.14512022 0.15618876
000040 78 8d 9b bc f6 a1 41 3d ba 86 02 bd 2d c9 7e 3e
       -0.018988356 0.0472736 -0.031866767 0.2488143
000050 b6 0a 4f 3e 5a db d5 3d d5 54 b3 bd 15 01 97 3b
       0.2021893 0.104422286 -0.08756415 0.0046082833
000060 f3 d0 c0 bd 63 60 5b 3e 9e 4b 8e be a5 18 27 3e
       -0.09414854 0.21423487 -0.27792066 0.16317995
000070 36 02 1c 3e 19 67 3c bd fc 3a ea 3d bc 0d 82 bd
       0.15235218 -0.04599676 0.114370316 -0.06350276
000080 e1 56 8a be 0c e3 80 3e 80 54 3c 3d af 84 64 3d
       -0.27019408 0.25173223 0.045979023 0.0557906
000090 b5 97 17 bd f3 bf a6 be cc 96 9c bd 38 75 1b bc
       -0.037009913 -0.3256832 -0.0764595 -0.009488396
0000a0 43 66 92 3b e6 9a af 3d 61 da 8b 3d bd 70 72 3e
       0.004467757 0.085744664 0.06828762 0.23675819
0000b0 1d d7 31 3d 35 d7 d2 3e 30 1e d9 bd 53 fa 8c bd
       0.04341804 0.41179815 -0.10601461 -0.06883683
0000c0 62 3f 1a 3b 91 81 6a 3d 8d f4 39 3e 48 de 92 be
       0.0023536314 0.05725247 0.18159695 -0.28685212
0000d0 9b 3b b7 bb 23 b4 6a be af 4a 36 3e 8c 42 03 3e
       -0.0055918223 -0.22920279 0.17801927 0.12818354
0000e0 31 50 4b be 09 0e 5e 3d 8c b3 70 3d 6e 45 e9 3d
       -0.1985481 0.054212604 0.05876498 0.11390196
0000f0 ba c3 07 bc c5 7b 0b 3e 8d eb 75 bc 22 d9 98 3e
       -0.008286411 0.13621433 -0.015009773 0.2985316
000100 72 26 ae 3c 9e 24 f8 bd e2 12 41 bd 58 20 7a be
       0.021258567 -0.12116359 -0.04713715 -0.244264
000110 fa 5d 94 3d 56 fc 53 3d 93 70 78 bd f8 27 db 3c
       0.07244487 0.05175432 -0.060654234 0.026752457
000120 dc c4 84 3d 2c 99 33 be 11 81 9f 3d a0 e3 fa bc
       0.064828604 -0.17538899 0.07788289 -0.030626118
000130 47 4f d9 3c 62 8a af bd c0 38 ca 3b c8 0d ab be
       0.02652706 -0.08571316 0.006171316 -0.33408952
000140 39 75 51 3d 8d b5 2b bd 88 fe 2b be 1f 2e f0 3b
       0.051137183 -0.041921187 -0.16796315 0.007329717
000150 4f 15 81 bd 0a 9c 80 be cd 8e 34 bc fa 4b 81 be
       -0.063028924 -0.25119048 -0.0110203745 -0.25253278
000160 7e 05 62 3d 09 10 e4 3d e6 71 f4 3d c2 f1 93 3e
       0.05518102 0.11135871 0.11935787 0.28895384
000170 b9 32 e2 bd 58 df 66 3d 6d d1 84 bd 5a cd e9 be
       -0.11044831 0.05636534 -0.06485257 -0.45664483
000180 95 11 e2 3d d1 83 70 bf 04 f5 fb bd d4 ef e2 3c
       0.1103851 -0.93951136 -0.123025924 0.02770225
000190 c5 b6 4f 3d bb 4d 29 bd de aa 70 3d 7a d4 d2 bd
       0.050711412 -0.041333895 0.0587567 -0.10294433
0001a0 11 c4 c6 3c b2 ed 23 3d 9d 89 9b 3d 33 b0 50 be
       0.024263414 0.040021606 0.07594607 -0.20379715
0001b0 04 f6 d9 bb 02 2c 18 be 69 26 36 3e 2a 3f 07 bd
       -0.006651642 -0.14860538 0.1778809 -0.033019222
0001c0 24 9d 5b bd 48 fc 5f bf bb 83 a9 3c 8f 04 0f bd
       -0.053616658 -0.87494326 0.020692697 -0.034916457
0001d0 d5 18 9d 3d bc c2 53 bf ad 6f 1e 3d e0 bc 03 ba
       0.07670752 -0.82719016 0.03868072 -0.0005025398
0001e0 cb cf b1 bd 01 24 e6 bd dc c7 47 bc ce b2 5a bd
       -0.086822115 -0.11237336 -0.012193646 -0.053393178
0001f0 e8 a1 01 bf 6e 1f df bd 74 b5 80 3c 6f b9 49 3e
       -0.50637674 -0.108946666 0.015711524 0.19699644
000200 1f a2 0e bd a4 09 1f 3e 56 f1 91 bd df 17 96 3c
       -0.03482258 0.15531021 -0.07126109 0.01832193
000210 4b 5f 28 3e 41 2d 2b be f0 ea 69 3d 46 46 56 be
       0.16442601 -0.16716482 0.05710882 -0.20925245
000220 1f a6 0a bc 4a 86 8e 3d 70 b4 dd 3d 68 7c bf 3d
       -0.008462458 0.06959207 0.10825431 0.093499005
000230 d4 26 b8 bc b8 6c 21 3e e6 32 57 bd 7a 9c 06 39
       -0.022479452 0.15764129 -0.052538775 0.00012837528
000240 94 75 db 3d 06 f9 2a 3e a2 4f 3f 3d 9f cc d9 3d
       0.107157856 0.16696557 0.046706803 0.106347315
000250 b7 40 af 3c f5 9d c3 3d c8 e6 77 bc 31 f7 f2 bd
       0.021393163 0.09551612 -0.015130706 -0.11863554
000260 72 9c d4 bd ad 7c bc 3d 50 aa aa 3d ec 77 09 3d
       -0.10381402 0.092034675 0.08333266 0.033561632
000270 78 8a 00 bd 32 7d ca 3d 85 dc 9f 3c 11 ad fc bd
       -0.031382054 0.0988716 0.019514332 -0.12337697
000280 ba 72 08 3e 85 82 7f bd 0f 5f 30 3e ac dc ad 3d
       0.13325015 -0.062380332 0.17223762 0.084893554
000290 cd 0a 78 3d 9f 08 f4 bd 7c b6 3c be db 83 79 bd
       0.060557175 -0.11915707 -0.18428987 -0.060916763
0002a0 a7 67 10 3e 3d 52 ce 3d 29 c0 91 bf 72 56 01 3e
       0.1410204 0.100742795 -1.1386768 0.12630633
0002b0 2c ce 02 3e 33 e4 1f 3d 34 2a 6b 3d 02 7f 8f bd
       0.12773961 0.039035987 0.057413295 -0.07006647
0002c0 9c e5 3c 3c 6a 92 92 3c 45 2e c3 3c e3 e2 4d 3c
       0.0115293525 0.017892081 0.023825774 0.012566301
0002d0 43 f0 87 bd 4a 6b 44 be 58 68 eb 3b 2b d7 eb 3d
       -0.06637623 -0.19181553 0.0071840696 0.115156494
0002e0 e1 5a 90 be c7 75 d2 bd 18 7f 95 bd 4d 75 9d be
       -0.28194335 -0.102763705 -0.07299632 -0.30753556
0002f0 75 83 21 3e 1f be 15 bd 65 58 69 bd 42 2c a3 3d
       0.15772803 -0.036558267 -0.056969065 0.07967426
000300 58 22 57 3c 60 4e 25 bc 27 4a 8d 3d cf cd 1b 3e
       0.013130747 -0.010089487 0.06898909 0.15215228
000310 57 40 34 bd 86 b9 cd 3d 3c a0 c0 3d 67 45 97 bd
       -0.04400667 0.100451514 0.09405562 -0.07386284
000320 24 fc 3c 3e 16 2c d7 be 36 30 83 bc ff 75 b4 3e
       0.18455559 -0.42025822 -0.0160142 0.35246274
000330 d7 2a b9 3d df e2 db be a2 a0 52 3e 15 00 8f bd
       0.09041374 -0.42946526 0.20569089 -0.069824375
000340 03 5f 32 bf 76 a3 25 3e 0d 81 77 3d f9 b5 2a 3e
       -0.69676226 0.16175637 0.060425807 0.1667098
000350 6e 37 92 3e 64 1e 98 3d db 6f a3 3d a0 07 30 be
       0.28557914 0.074276716 0.07980319 -0.17190409
000360 6c 0a b7 3d 2f 7d be be ed 54 9c 3d de 95 aa bd
       0.08937535 -0.37204883 0.07633386 -0.08329366
000370 c2 2c 00 be e0 c1 20 3e de 4a 13 3c 35 84 ca be
       -0.12517074 0.15698957 0.008990018 -0.3955399
000380 7e 25 b2 3d 0c a1 08 3e 8a 0e ae 3d ab 32 ba 3b
       0.08698557 0.13342685 0.08498867 0.0056823096
000390 b7 f9 16 be a2 6c fb 3d 10 33 20 be 55 c1 e6 3e
       -0.14743696 0.122765794 -0.15644479 0.45069376
0003a0 73 0d 2a 3e 10 7c d3 bd 9c 3e 22 3e 48 02 f3 3d
       0.16606693 -0.103263974 0.15844196 0.118656695
0003b0 b0 5d 67 be 56 ad 83 3d 8c 11 40 3e a4 ee 2b be
       -0.22594333 0.064295456 0.18756694 -0.16790253
0003c0 df 13 e0 3e 59 4d 01 3d b3 69 03 bc 4c aa e4 3b
       0.4376516 0.031567905 -0.008020806 0.006978309
0003d0 87 61 0d 3d 9f ae 69 be 99 b8 46 3d 04 fa 15 bb
       0.034516837 -0.22820519 0.04851589 -0.0022884617
0003e0 0a ff 5b be 78 84 b5 bd 02 b5 9f 3d 4b e4 08 3e
       -0.21484008 -0.08863157 0.077981964 0.13368337
0003f0 4a 85 17 3e fc e4 2c 3e 5a 9c 3d bf 3c ab 1f bf
       0.1479694 0.16884226 -0.740667 -0.6237066

bias f4 [64]
000000 1e 14 5e 3e 0a 51 9c be 4d 87 45 3e 22 f6 49 be
       0.21687362 -0.30530578 0.19289894 -0.19722798
000010 54 55 ec 3c 27 a1 d5 3d 6e 74 1a 3e ee 07 c8 3d
       0.028849281 0.10431128 0.15083477 0.097671375
000020 7f f2 da 3d bd 1e b9 3d 20 75 2f 3c 9d 3a d4 bd
       0.10690784 0.09039066 0.010709077 -0.10362742
000030 e9 81 01 bd c1 87 6e bd 7d f1 5f bb fe 39 ae 3d
       -0.031618033 -0.058234934 -0.0034171038 0.08507155
000040 25 3d 1f be 00 76 d8 bd 24 78 7e bb bb c9 14 3e
       -0.15550669 -0.10569382 -0.0038828934 0.14530079
000050 ad 19 10 3e 14 42 e0 3d cc 70 a9 bd 48 a0 54 3d
       0.14072295 0.109501034 -0.082734674 0.05191067
000060 85 94 8e be ef 1c 3c bd 18 3c 4f be 2c d3 a4 3c
       -0.27847686 -0.04592603 -0.20237768 0.020120226
000070 82 95 fa ba 1a 9d d9 3b 6a fe d2 3d 7a 71 cf bb
       -0.0019118043 0.0066410424 0.10302432 -0.006330666
000080 88 68 26 3e ab f3 06 be 17 82 f8 3d 9a 38 df bd
       0.16250813 -0.1317889 0.12134188 -0.10899468
000090 d9 87 93 3d 24 be 89 3d b4 30 6e bd a6 50 1e be
       0.07203645 0.067257196 -0.058151916 -0.15460452
0000a0 75 cf 72 3e 13 4e ad 3b a5 c5 56 3e d1 aa 74 3d
       0.23711951 0.005288848 0.20973833 0.059733216
0000b0 b3 17 27 3e a2 96 22 3e ba f3 b0 3b 47 9d 92 3d
       0.16317634 0.15877774 0.005400148 0.071589045
0000c0 b9 78 76 3d 76 c9 93 bd 5a c1 5a be 83 e1 a9 3d
       0.060173724 -0.0721616 -0.2136282 0.08294966
0000d0 ff dd a1 3d f1 9d 96 bd fc b2 b6 3d 5b 2e 4b 3d
       0.079036705 -0.07354344 0.08920857 0.049604755
0000e0 4b 03 fd 3d a9 e2 05 3e 19 28 e3 3d b2 f1 c7 bc
       0.12354144 0.13074745 0.110916324 -0.024407241
0000f0 8c f9 19 bc a2 fb 39 bd 13 c9 eb 3d f3 0e 8b 3e
       -0.0093978755 -0.04540599 0.11512961 0.27159843

weight f4 [1, 64]
000000 d1 2c 33 be f0 a5 c2 3f 66 54 3c 3e 4f 6f f7 be
       -0.17497565 1.520689 0.1839157 -0.4832711
000010 c0 1d ab 3e a2 37 07 3e e3 9f fc be 32 8a 2d 3f
       0.33421135 0.13204816 -0.49340734 0.67788994
000020 a5 e8 a4 3e 4a f7 46 3e 05 c0 95 3f b4 40 cc 3d
       0.32208744 0.19430271 1.1699225 0.09973279
000030 03 17 ee 3e f9 da 29 3f 31 5a 8a be c9 10 d4 be
       0.46501932 0.6634975 -0.27021936 -0.41419056
000040 63 4e 33 be db 32 14 bf 3f be c0 3e c3 a9 1b 3e
       -0.17510371 -0.578901 0.37645146 0.15201478
000050 5f e4 08 3f 6f df 80 3e c6 5a dd bd cc c8 a4 3e
       0.53473467 0.25170466 -0.10808329 0.32184446
000060 9d ea d3 3f f1 0d a3 be 9f 60 4b 3f 16 a3 6b 3e
       1.6555973 -0.31846574 0.7944431 0.23011431
000070 b0 3b 4d 3c 00 4f 91 3e 4f 39 fc bd 6f 5a 77 3e
       0.012526438 0.28380585 -0.12315618 0.24155591
000080 d3 0c 8d 3e 49 d7 4f be 1a 5d 6a 3e 86 0a d7 3e
       0.27548847 -0.20296969 0.22887078 0.42000216
000090 23 d9 b1 bd c4 ef b4 3e d0 dc 49 3c 96 61 18 bf
       -0.08683994 0.35339177 0.012320712 -0.59523904
0000a0 32 e6 7c be e4 10 1d be 70 75 23 bf f8 0c 9a be
       -0.24697188 -0.15338475 -0.6385107 -0.3008802
0000b0 4a 6f ee 3e d8 b0 9a c0 b1 67 4b be ad af 06 3f
       0.46569282 -4.8340874 -0.19863774 0.5261181
0000c0 d2 bf 31 40 8c 26 0e 3f cd 85 12 bf ce 92 24 bd
       2.7773328 0.5552757 -0.57235414 -0.040179066
0000d0 a6 0b b0 3e 38 b6 e6 3e 9e 6f b7 be 71 3f b3 be
       0.34383887 0.45060897 -0.35827345 -0.3500934
0000e0 55 e4 5d 3e 3b 27 fc be e2 a4 ac 3d 60 bc 82 3d
       0.21669133 -0.4924868 0.084298864 0.06383586
0000f0 91 89 b6 3d 1b 89 88 3d d3 66 99 3d c3 ff a3 be
       0.089129575 0.06666776 0.07490315 -0.32031068

weight f4 [64, 4]
000000 3d 19 17 bf 26 86 88 3c cb 5f 48 3f 56 b8 68 be
       -0.59022886 0.01666553 0.7827117 -0.22726569
000010 c5 fb 74 3c 93 7d fb be 7f d2 4e be 39 d9 0e 3e
       0.014952605 -0.49119243 -0.20197485 0.13950051
000020 3a 95 7e be 8b 7d 02 3f c8 16 42 bf 44 2b 63 3e
       -0.24861613 0.50972813 -0.7581601 0.22184473
000030 30 33 ab be 06 9c 19 bf 6a c0 b2 3e 14 43 9b 3c
       -0.3343749 -0.600037 0.34912425 0.018952884
000040 77 99 00 bf de 24 4c be e2 fe 87 3f cf ba d3 be
       -0.5023417 -0.19935939 1.0624659 -0.4135346
000050 c2 ad 98 3c b7 2a 1f bf 5c ca df 3e de 89 a5 be
       0.018637542 -0.6217455 0.43709075 -0.32331747
000060 ff 5f 95 bd 4a 22 84 3e bc c1 09 3e 21 db 46 bf
       -0.072937004 0.2580741 0.1345281 -0.77678114
000070 ee f4 93 be e1 6d 89 bf e0 9e 0e be 1e ee d2 3e
       -0.28897804 -1.0736657 -0.13927794 0.41197294
000080 a5 b0 22 be cc 89 84 bf 52 21 57 3e 0a 80 8d 3e
       -0.15887697 -1.0354552 0.21008804 0.2763675
000090 a7 b3 da 3d d9 36 8a bf 3c e4 1c bf f0 02 c2 be
       0.10678797 -1.0797988 -0.6128576 -0.37892866
0000a0 04 7f 66 3e bb af 89 3f 5d 82 3a 3f e3 d9 df 3d
       0.2250939 1.0756754 0.7285517 0.109302305
0000b0 06 0a a8 bd ab b2 26 bf c9 4e b0 3d b0 ac 25 be
       -0.08205037 -0.65116376 0.08608777 -0.16179156
0000c0 c6 eb 20 3d d1 e5 88 bf ac 72 72 3f 35 5d c3 3e
       0.03928735 -1.0695134 0.94706225 0.3815705
0000d0 cd 47 04 3f af d0 66 bf b0 51 86 bf 3e eb ec bb
       0.5167206 -0.90162176 -1.0493679 -0.0072301915
0000e0 a0 18 67 3d 26 3c e1 3e 58 d4 bb bb 34 61 06 3f
       0.05641997 0.43991202 -0.0057321005 0.5249207
0000f0 5e 6e 09 bd cb 47 55 bf f7 87 b2 bd cb e0 cd be
       -0.03355252 -0.8331267 -0.087173395 -0.40210566
000100 dc 57 d5 3c 89 4c 23 bf 1a db c9 3e 3c a6 68 3e
       0.026042871 -0.6378866 0.39424974 0.22719663
000110 ad 7a 23 be c4 72 4f bf a9 f8 95 bf f4 36 8b be
       -0.15964766 -0.81034493 -1.171651 -0.27190363
000120 2e 13 e0 3a b2 cb 31 3f e4 a8 6b 3f 5a d2 88 3e
       0.001709556 0.6945144 0.9205458 0.26722986
000130 4b f1 d3 3d b7 5a 39 3f 0a a2 3b 3f 35 6c 71 3e
       0.10348757 0.72404045 0.73294127 0.23576434
000140 72 16 d6 3c 08 a8 66 3f 64 51 4c 3f 06 2c 90 3e
       0.02613375 0.90100145 0.7981169 0.28158587
000150 c0 49 b3 be ff e0 30 bf e7 e1 ae 3c 73 1c 27 bf
       -0.35017204 -0.69093317 0.021347953 -0.65277785
000160 15 e5 6c be 4d 1a f9 be 24 37 23 3f 70 46 2e 3f
       -0.23134263 -0.48652878 0.6375601 0.6807623
000170 af 27 ab be 1a fa 8d bd 06 af 2e be c8 63 91 3e
       -0.33428714 -0.06932469 -0.17058954 0.2839644
000180 bb 10 8e 3e b4 1d da be 91 5e a6 3f 73 75 74 3e
       0.2774714 -0.42600787 1.2997609 0.23872928
000190 cf 7d 58 bd d8 9a 49 3f ce 0e 9f bf f4 97 bb be
       -0.052854355 0.787519 -1.2426393 -0.3663937
0001a0 75 d0 0f 3e cf 54 93 bd 58 4a 9f bf 87 51 12 be
       0.14044364 -0.0719391 -1.2444563 -0.14288913
0001b0 d4 0e 24 bd 56 80 1b bf 21 7a 87 be 7c fa d6 3b
       -0.040053204 -0.607427 -0.26460364 0.006560622
0001c0 2d 04 8e 3e e9 1e 9a be 54 16 36 3f dc 66 55 3e
       0.2773756 -0.30101708 0.7112782 0.20840019
0001d0 e4 d3 89 3e 99 ae 39 bf df be 68 3e f4 ae 8d be
       0.26919472 -0.7253204 0.22729062 -0.2767254
0001e0 d1 b5 05 3d 01 56 84 3f 19 da 32 bf 75 49 89 be
       0.032644097 1.0338746 -0.6986404 -0.26813856
0001f0 be 59 55 be 1a a4 c6 be 85 fe a6 3f e8 f6 bf 3e
       -0.20835015 -0.38797075 1.3046423 0.37493062
000200 1e 4e e6 3d 84 19 81 3e d1 e1 8a bf 0a 90 82 bd
       0.112453684 0.2521478 -1.0850164 -0.063751295
000210 cd 03 44 be e0 2e 12 bf be bf 8f be 26 ec 79 3e
       -0.19142075 -0.57102776 -0.28075975 0.2440649
000220 24 77 f1 3e 46 b7 03 be 8f ff ac bf 25 33 0b bf
       0.4716121 -0.12862882 -1.351549 -0.54374915
000230 b1 ca 1b be 41 03 e9 3e e9 b7 62 bf 5e c2 b8 3e
       -0.1521404 0.45510295 -0.88561875 0.3608579
000240 8d 75 d6 be e7 36 99 be c4 2c 05 3f 64 ad e7 be
       -0.4188656 -0.299247 0.5202143 -0.45249474
000250 c8 47 9b 3e b7 cd 70 3f fd 4a 2d bf 2d 2e 21 bd
       0.30328202 0.94063896 -0.6769255 -0.039350677
000260 28 d9 de 3d ea 70 3d bf 52 ed f0 3e ad 73 75 3e
       0.10881263 -0.7400042 0.4705606 0.23969908
000270 5e 24 6a be b5 52 83 3e 8c fe cf 3f 72 29 c9 3e
       -0.22865435 0.25649038 1.6249557 0.39289433
000280 ed 3c 17 3b e2 51 d8 be 09 46 3c 3f e0 15 08 be
       0.0023077086 -0.42249972 0.73544365 -0.13289595
000290 53 b0 37 3d f1 69 2f bc 79 05 61 3f 98 c1 9f be
       0.04484589 -0.010706411 0.87898976 -0.31202388
0002a0 0c e5 e6 3c c5 7d b4 3d 3c 10 9a be 9b 76 2e 3f
       0.02818539 0.08813051 -0.3009051 0.6814973
0002b0 21 16 88 be e6 7a 3a bf 8a df 9d 3f cf 20 cd 3e
       -0.26579383 -0.7284378 1.2333844 0.40064093
0002c0 af 12 d7 be 34 3a 82 bd 96 dd 95 3e 5d 2b 89 3e
       -0.42006442 -0.063587576 0.2927062 0.26790896
0002d0 dc fb aa bd 96 a9 ae 3f 72 d6 63 3d bc 83 c5 be
       -0.083488196 1.3645504 0.055624433 -0.38577068
0002e0 b8 9b 84 be 53 14 2e 40 63 54 1b 3e 02 6c 9a bd
       -0.25900054 2.7199905 0.1516891 -0.07540132
0002f0 48 93 8c 3e 46 09 a4 3f 34 0b dd bc fb 57 97 3e
       0.27456117 1.281533 -0.026982881 0.2955931
000300 2e 48 b6 be b7 e4 c9 be 71 a4 dd 3e db d5 3d bf
       -0.35601944 -0.39432308 0.4328952 -0.7415444
000310 b0 86 63 3d 1a 07 7c bf ca 0e 78 bf 3f 1f af be
       0.05554837 -0.98448336 -0.96897566 -0.34203526
000320 e0 d8 83 be 5f c2 e5 bc 9e 24 c8 3e 45 2b 2d bf
       -0.257514 -0.028046785 0.39090437 -0.6764415
000330 9e f8 b0 3e 6d 62 87 bf 3e fe 80 3e 63 12 bc 3e
       0.3456468 -1.0576912 0.2519397 0.36732778
000340 b3 c9 7c bd 0c 71 58 bf 9e 5a ce 3d 55 0d 9b be
       -0.061715793 -0.84547496 0.100758776 -0.3028361
000350 ae 49 02 bc 2e 77 1a bf 27 2a 8b bf f3 db 89 be
       -0.007952137 -0.60338104 -1.0872239 -0.2692562
000360 86 02 ba be 9a 1e 0e be d0 90 76 3e 33 96 67 bd
       -0.3633005 -0.13878861 0.24078679 -0.056539726
000370 38 ba e7 3e cc 45 88 bf 40 81 3e bf 63 9d 1f bf
       0.4525926 -1.06463 -0.7441597 -0.6234953
000380 14 af 59 be 13 a6 dc be 30 10 0a bf ce e3 49 be
       -0.21258193 -0.43095455 -0.5393095 -0.19715807
000390 49 77 53 be 14 61 c8 3e 86 e3 a3 3f 2e 35 31 be
       -0.20650972 0.39136565 1.280381 -0.17305443
0003a0 2b 19 48 bd a6 41 cf be b5 36 9b bf 12 50 69 be
       -0.048852127 -0.40479773 -1.212607 -0.2278445
0003b0 7b 25 12 be c0 3d be 3e 66 b3 2a bf 21 ff c1 3e
       -0.1427211 0.37156487 -0.6667999 0.3788996
0003c0 69 42 e4 3e aa f6 08 3e fb ca 69 3e 8b 2f 16 3f
       0.44581917 0.13375345 0.22831337 0.58666295
0003d0 05 d1 fd bd 7e 3a 93 bf 08 69 5a bf f5 6f c0 be
       -0.12393383 -1.1502225 -0.85316515 -0.37585416
0003e0 e7 df 86 be 45 ce 30 3e e7 19 b2 bf 9e 35 82 be
       -0.263427 0.17266186 -1.3914155 -0.25431532
0003f0 2a 4a 8d 3d e7 b6 4e be 72 bf 2f 3d 66 84 1a 3e
       0.06898911 -0.20186959 0.042907186 0.15089568

bias f4 [64]
000000 df 20 22 3d 33 59 42 3f 67 0f f8 3d b5 a7 a7 3d
       0.03958213 0.7591736 0.12112313 0.081862845
000010 ce 0f 1c 3e 4c d2 d1 be 7c 3d 9d 3e ae ed 60 bd
       0.15240404 -0.40980756 0.3071097 -0.05491417
000020 38 d0 42 3c 24 ae 89 3f bf 12 d3 3e c5 c7 58 3f
       0.0118904635 1.0756269 0.4122524 0.84679824
000030 71 68 73 3f 6b d0 64 3e 02 ad 4b 3f 68 4f 61 3f
       0.9508124 0.2234513 0.79560864 0.8801179
000040 13 b2 37 3f 7e eb d2 3e ed fb e1 be 39 c3 6a 3f
       0.71756095 0.4119529 -0.44137517 0.91704136
000050 88 d4 18 bf ed aa e7 bd 5f e6 39 bf 25 e4 e8 be
       -0.59699297 -0.113118984 -0.72617143 -0.4548656
000060 07 0f ba 3e d9 63 2b bf 16 9c 16 3f 74 3f cb be
       0.3633959 -0.6694923 0.5883192 -0.39696848
000070 54 75 54 3f 3a 3c 8b 3f 0f 9b e1 be c1 60 09 3f
       0.8299153 1.0877755 -0.44063613 0.5366326
000080 5a a4 96 bc d6 1e 99 3f ed 54 be 3d b0 ed b6 3e
       -0.018388916 1.1962535 0.09293542 0.35728216
000090 51 bd b2 3c 9a 13 56 3f d6 95 3d 3f 37 93 d7 bd
       0.021818789 0.8362366 0.74056756 -0.10526126
0000a0 5a 61 21 3f 2e e4 d0 3e ab 77 f4 bd 5a 0b 14 3f
       0.6303917 0.40799087 -0.11936887 0.5782982
0000b0 49 c1 97 3f 90 82 05 3f d1 cc c9 3e 43 7e 37 3e
       1.1855861 0.5215235 0.39414075 0.17919259
0000c0 ea c7 22 3f fe f9 33 3f a3 51 05 3e 93 10 39 3e
       0.63586295 0.7030333 0.13019423 0.18072729
0000d0 cc 82 bc 3f 17 16 b7 3e 32 14 67 3f 29 9c b9 3e
       1.4727416 0.3575904 0.9026519 0.36251953
0000e0 ff c1 5a 3f de 91 14 3f 58 d3 e3 3d 22 b0 2a be
       0.85452265 0.58035076 0.11124295 -0.16668752
0000f0 0e ac cb 3b e4 f8 8c 3f 0d a0 29 be 6b ff 52 3f
       0.006215579 1.1013455 -0.16564961 0.82420987

weight f4 [64, 64]
000000 4a 62 80 3e 8c a6 5b be a3 f1 dc bb 00 2c 04 be
       0.2507499 -0.21450251 -0.0067426725 -0.1290741
000010 42 91 25 3e f5 7e 0b 3f 89 f4 c5 3d b8 93 65 3e
       0.16168693 0.54490596 0.09665782 0.22419631
000020 47 e7 59 3e 60 25 ec bd 4a bb 1c bd e4 30 38 bd
       0.21279632 -0.11530566 -0.03826455 -0.0449685
000030 4a 90 88 bd a1 3d 17 be 74 ec 24 3e 73 33 f6 3c
       -0.06668146 -0.14769603 0.16105825 0.03005383
000040 03 96 02 be 64 74 56 bc 00 91 ee 3d 59 5d d4 bc
       -0.12752537 -0.013089273 0.1164875 -0.025923418
000050 e3 b6 b2 bd 9b d7 ba 3d 6a 5b bb 3e 3a 29 43 3e
       -0.08726289 0.09123155 0.3659318 0.19058695
000060 d1 b7 23 3e 43 80 7b bb 60 ef 2c bd 6a 42 e6 be
       0.15988089 -0.003837601 -0.042220473 -0.44972545
000070 f4 8e 98 b8 86 e8 3b 3c 97 bd 2a bf 9d e3 0b 3d
       -7.274552e-05 0.011469012 -0.6669554 0.034152616
000080 5c b3 a5 3e c0 81 34 bd 64 32 22 3e 61 64 5f bd
       0.32363403 -0.04406905 0.15839535 -0.05453909
000090 e8 5c 67 3e 95 5b e3 be a9 0f 57 3c dd ea 88 3e
       0.22594035 -0.4440581 0.013126292 0.26741686
0000a0 0d f6 98 bd 05 24 2e 3e 92 91 01 3e 1d a2 62 3d
       -0.074688055 0.17005928 0.12653187 0.055330385
0000b0 65 8c d6 3d d3 be e5 bd f2 d4 19 bf fc a4 91 3d
       0.10475997 -0.112180375 -0.60090554 0.071115464
0000c0 43 d6 4f 3d 9c d6 2e 3c 53 c4 bb 3c 88 6a cd 3d
       0.050741445 0.010671284 0.022920763 0.10030085
0000d0 0e 68 1e be 3d 30 60 be 90 c2 52 be d0 bb 8e 3e
       -0.15469381 -0.21893401 -0.20582032 0.27877665
0000e0 54 81 11 be b2 3d ca 3d 80 a7 3a bd 39 2a 64 bd
       -0.14209491 0.09875049 -0.045569897 -0.05570433
0000f0 e6 3d 9f 3d 4b 05 1e be 33 a5 78 bd 08 fa 02 be
       0.07775478 -0.15431707 -0.06070442 -0.12790692
000100 df 17 5f 3d d0 a1 ff bd 3f ff 1f 3f 57 62 88 3e
       0.054466125 -0.12482035 0.6249885 0.26637527
000110 42 8a 76 3d b9 7a bd bd 25 4c 29 3c 4d 14 ec 3b
       0.060190447 -0.09251923 0.010333096 0.0072045685
000120 4d aa 8c 3e f6 b2 8b 3d 80 f1 09 be 81 36 57 bd
       0.2747368 0.068212435 -0.13471031 -0.052542213
000130 42 a3 4d be d4 21 c3 bc ff b4 04 bf 5d a4 55 3d
       -0.20081809 -0.023819841 -0.5183868 0.052158702
000140 68 47 4f be c9 00 33 3e 4a 71 15 be fe f6 8e 3d
       -0.20242083 0.17480768 -0.14593998 0.06980704
000150 6e 72 4b be 58 90 72 3a 4f c2 7a be a1 3f 0c be
       -0.1986787 0.0009253076 -0.24488185 -0.13696148
000160 84 33 80 bf 1f 12 e5 bf 56 e1 36 bf 75 72 88 3e
       -1.0015721 -1.7896155 -0.71437585 0.26649824
000170 ab 96 e4 be 72 31 c1 bc d8 05 d0 bf 46 6e 30 be
       -0.446462 -0.023583148 -1.6251783 -0.17229566
000180 bb 8e f7 3e 22 d0 98 3e 70 70 89 be 1c 96 1d 3f
       0.48351082 0.29846293 -0.26843596 0.61557174
000190 08 04 c0 3c 5a 3e 02 3f 3f 59 79 be b1 a5 b0 bd
       0.023439422 0.5087639 -0.24350451 -0.08625353
0001a0 4a 39 b1 3b 88 27 77 3d ff 62 0d bf 60 77 4b be
       0.0054084407 0.060340434 -0.5522918 -0.19869757
0001b0 19 be ac bc cc 5f a6 3c 72 66 ee 3e b1 c7 d8 bc
       -0.02108674 0.020309351 0.46562535 -0.026462408
0001c0 d1 93 b3 3d 42 46 21 3e 0d 59 01 3e d1 d9 30 be
       0.08768428 0.15749457 0.12631626 -0.1727059
0001d0 cd fe 1f 3d 41 3e e9 3c 4f 59 f4 3c ce 74 04 3d
       0.039061356 0.028472068 0.029827742 0.032337956
0001e0 cc 2a 73 3e 5d c3 3b 3d ff e6 dc be f3 1a e1 3e
       0.23746794 0.04584061 -0.43144986 0.43965873
0001f0 e2 fb e2 be 99 d0 bc 3d a0 b0 00 bf ec 3f bb be
       -0.44332796 0.09219474 -0.5026951 -0.36572206
000200 04 04 71 bf e9 99 9a 3d f1 90 e4 bd 9a 9d 21 bf
       -0.9414675 0.07548887 -0.11160458 -0.63131106
000210 8e f7 f8 bd 29 3a 06 3e a8 28 18 be 13 d4 ba be
       -0.12156592 0.13108124 -0.14859259 -0.36489925
000220 5d 00 0a bf d0 20 f9 bc 3a 04 5d bc 70 b4 8a 3d
       -0.53906804 -0.030411154 -0.013489777 0.06772697
000230 9e a7 33 bf 59 ad 1f 3e 9d d4 08 bf aa 6a 6a 3d
       -0.7017764 0.1559347 -0.5344942 0.05723063
000240 dd 4c 69 be ea 07 20 3e 92 30 61 bd 2b ff 1a bf
       -0.22783227 0.15628019 -0.05497796 -0.60545605
000250 71 56 dc bd 25 df fd bc 3a 43 a6 3d c0 e1 d4 3e
       -0.10758675 -0.030990193 0.08118291 0.41578484
000260 f9 b3 b6 be a4 ca fe 3c 83 f5 92 3d 71 97 a5 be
       -0.35684183 0.031102486 0.07175734 -0.32342103
000270 bb c4 2f 3c 0f 1a 9f 3d f7 63 81 be 83 1e b8 bc
       0.010728057 0.07768642 -0.2527158 -0.022475487
000280 64 f0 33 bd cf 35 2a be f4 54 28 3e 04 6b fe 3c
       -0.043930426 -0.16622089 0.16438657 0.031056888
000290 37 1a f7 bd 0a 76 7b 3d 20 88 6f 3e 79 cf e6 3b
       -0.12065547 0.061391868 0.23391771 0.0070437756
0002a0 53 cb 05 3e 26 bd 10 3e 19 a3 82 bf a7 eb 3f bf
       0.13065843 0.14134654 -1.0206023 -0.7496895
0002b0 33 30 d5 be 64 1b 66 be c5 3f ac 3e 86 99 dd be
       -0.41638336 -0.22471386 0.33642402 -0.43281192
0002c0 ba 94 ba 3c e7 d8 8c 3d b2 a0 61 bd a7 03 1a be
       0.022775996 0.06877308 -0.05508489 -0.15040456
0002d0 fb 37 10 bd b9 32 f6 3d 89 dd b2 3d 28 3a 28 3d
       -0.035209637 0.12021393 0.08733661 0.041071087
0002e0 8a 16 1c 3c 92 ec 3e bf 6d 2a 94 3a 8c 01 ff bd
       0.009526858 -0.7457973 0.0011304148 -0.12451467
0002f0 b8 6d df be c5 00 21 3d c1 68 d2 3c dc a2 ca bd
       -0.43638396 0.039307375 0.025684716 -0.09894344
000300 09 4a c3 bd 5b 91 ab 3e c2 ee 58 3e 13 a4 4d 3e
       -0.095356055 0.33509335 0.21184829 0.2008212
000310 01 e9 e9 bd 0f 90 9d be 30 af f1 bc 7a bc 3c be
       -0.11421395 -0.3077397 -0.029502481 -0.18431273
000320 68 85 c7 bd 5c 22 66 3e 31 eb bf 3d 2d 0c bb 3e
       -0.09742242 0.22474045 0.09371031 0.36532727
000330 b3 f6 0b 3e 0b 00 18 3e f8 97 99 bc 85 0a 58 3e
       0.13668327 0.14843766 -0.018749222 0.21097763
000340 85 78 bb 3e ff 42 8d 3d 8c 14 af 3e 15 e6 95 3e
       0.36615387 0.06897544 0.34195364 0.292771
000350 c8 6a 91 3e 45 f7 fa bd 7f 9d 8e bd 22 0b ba bd
       0.2840178 -0.12254194 -0.06963634 -0.09084155
000360 8c e8 19 3e 88 8b 87 bc ea 94 21 3e e5 65 2f 3f
       0.15030116 -0.016546026 0.15779462 0.68514854
000370 37 1d b0 3e 0d 21 47 3e 89 74 09 3f ca 39 86 3e
       0.3439729 0.19446202 0.53693444 0.26215965
000380 9f a0 02 bd 1e 4e 6e 3e 8c c0 a3 3d 97 81 83 3e
       -0.03189146 0.23271987 0.0799571 0.25684807
000390 bb 00 ef bc 35 1b 9d 3e e6 ac 59 3e ae 66 0c 3e
       -0.029175153 0.3068482 0.21257362 0.13711044
0003a0 74 91 b1 3e 83 07 dc bd 7a 5e ba 3d 75 a0 2f 3e
       0.34681284 -0.1074362 0.09100051 0.17151053
0003b0 9e d1 08 3e 7d 78 83 3e 25 9e e2 3e c0 74 66 3e
       0.13361213 0.25677863 0.4426128 0.22505474
0003c0 3a 0f a2 3d b3 b9 52 3e 34 c8 88 3c 36 6f a5 bd
       0.079130605 0.20578651 0.016697027 -0.080778524
0003d0 14 05 ab 3e 24 0c 68 3e 18 31 7e 3e 1d 92 c7 3d
       0.33402312 0.22660881 0.24823415 0.09744666
0003e0 28 96 ce 3e 6c 39 90 3e 54 25 3b bc cd b1 85 3a
       0.40348935 0.2816881 -0.011422474 0.0010200083
0003f0 a3 e2 38 bd c5 55 77 3e 50 bc 2b 3c 33 d3 10 3e
       -0.045138013 0.24153812 0.010481909 0.14143066
